E2/exercise_2/runs/2_2_simple_nn/model_best.ckpt (torch, 49742 bytes, 20 tensors)

conv1.weight f4 [4, 1, 4, 4, 4]
0	0x3ccd681f	0.025074063
1	0x3dafbaab	0.08580526
2	0x3dcbcaae	0.099507675
3	0x3da93227	0.08261519
4	0xbbf4513c	-0.007455973
5	0xbda8d879	-0.08244414
6	0xbd54e326	-0.051974438
7	0x3b4dfc40	0.003143087
8	0x3d99c634	0.07508507
9	0x3d7ad0eb	0.061234396
10	0xbd302db4	-0.043012336
11	0x3dc5cbeb	0.09658035
12	0x3b2a58c3	0.0025992848
13	0xbce5c98a	-0.028050203
14	0x3db5f0ba	0.088838056
15	0x3e076d1a	0.13225213
16	0xbde714be	-0.11283253
17	0x3bded03a	0.006799725
18	0xbe253745	-0.16134365
19	0x3c1b02a6	0.009461081
20	0x3d626f67	0.055282023
21	0xbdfbb7a3	-0.12290885
22	0xbdec4e58	-0.115383804
23	0xbd458f92	-0.048232622
24	0x3e059b49	0.13047518
25	0xbd29b5bb	-0.041433077
26	0x3c211f06	0.009834057
27	0x3dceaa60	0.1009109
28	0x3c8e2710	0.01735261
29	0xbdef738d	-0.116919614
30	0x3c73e229	0.014885464
31	0xb9d2c0bf	-0.00040197928
32	0x3d6601d2	0.05615408
33	0xbe0db942	-0.13840201
34	0xbd56fbc0	-0.05248618
35	0xbd8135a0	-0.06309056
36	0x3d89edbd	0.06734798
37	0xbe4482de	-0.19190547
38	0xbdf1b1f9	-0.11801524
39	0x3dde99fc	0.10869214
40	0xbddc0160	-0.1074245
41	0xbe437b34	-0.19089967
42	0xbdcadf7a	-0.09905906
43	0xbd8077fd	-0.06272886
44	0xbcc89bfa	-0.024488438
45	0xbe1e5da2	-0.15465406
46	0x3cc161f1	0.023606272
47	0x3e24d8c9	0.16098322
48	0xbdb2d201	-0.08731461
49	0x3d937222	0.071995035
50	0x3d759d12	0.059964247
51	0x3dcc95eb	0.09989532
52	0x3e0d8500	0.13820267
53	0x3e0266de	0.12734553
54	0x3d42415d	0.047425617
55	0x3b6b259e	0.0035880576
56	0xbb24cc71	-0.002514627
57	0x3c8ebed1	0.017424973
58	0xbc7dcc4c	-0.015490603
59	0xbc97befb	-0.018523684
60	0xbd667bb5	-0.05627032
61	0xbd3674c7	-0.04454496
62	0x3ceadad2	0.028668795
63	0x3d547b5e	0.051875465
64	0x3d2d1341	0.04225469
65	0x3d35614f	0.044282254
66	0xbde27724	-0.110578805
67	0xbe04381f	-0.12912033
68	0xbcd1d570	-0.02561447
69	0xbb8e2040	-0.0043373406
70	0xbda736b1	-0.081647284
71	0x3c1254d4	0.008931357
72	0xbc2bd296	-0.010487219
73	0x3d40f084	0.047104374
74	0x3dcb15ee	0.09916292
75	0xbd895523	-0.06705692
76	0x3d959384	0.07303527
77	0xbd0341f2	-0.032045312
78	0xbdbb60ed	-0.091493465
79	0xbdddffd9	-0.10839815
80	0x3dcfa22a	0.10138352
81	0x3dc1f30d	0.094701864
82	0x3db499cb	0.08818396
83	0x3ced0ca5	0.028936693
84	0x3ddf4156	0.10901134
85	0x3e0fcbc3	0.14042573
86	0x3d87f057	0.06637638
87	0xbd1e0fc1	-0.038589243
88	0x3c6fc6bc	0.014634784
89	0x3dc0b7fa	0.09410091
90	0x3d9ef5b5	0.07761709
91	0xbcdfea03	-0.027333265
92	0xbe13e62a	-0.1444327
93	0xbca31c9b	-0.019911101
94	0xbdd09b4a	-0.10185869
95	0xbba4aa64	-0.005025195
96	0x3d981bfa	0.07427211
97	0xbc8870d7	-0.016655369
98	0x3d1c3449	0.0381358
99	0xbd65442d	-0.05597322
100	0xbb911cec	-0.0044284966
101	0x3e479918	0.19491994
102	0x3e5fe45c	0.21864456
103	0xbbc9b00a	-0.0061550187
104	0x3d9c093b	0.07618948
105	0x3deba1fe	0.11505507
106	0x3e02b05f	0.12762593
107	0xbdba1912	-0.09086813
108	0x3d92e077	0.071717195
109	0xbd001f77	-0.031280007
110	0x3d2b85b3	0.041875552
111	0xbdbdcc85	-0.09267525
112	0xbe17662f	-0.14785074
113	0xbdac70ce	-0.08419953
114	0x3ccf6a8f	0.025319366
115	0x3d608c51	0.054821316
116	0x3df8d060	0.121491194
117	0x3e10bb8c	0.14134043
118	0xbd848c11	-0.06472028
119	0x3dbd7132	0.09250106
120	0xbcb266f3	-0.021777606
121	0x3d4a3660	0.049368262
122	0x3da3d3b6	0.07999365
123	0x3dbd9348	0.09256607
124	0xbe18f41f	-0.14936875
125	0x3c07c736	0.008287242
126	0xbe182283	-0.14856915
127	0xbe1ef06f	-0.15521406
128	0xbd7336d4	-0.05937846
129	0xbde8b40d	-0.11362467
130	0x3d5eb8d4	0.054375485
131	0x3dcf3228	0.101169884
132	0xbc689797	-0.014196298
133	0xbdc49d0c	-0.09600267
134	0x3de59eaf	0.11211907
135	0x3db6fc4a	0.08934839
136	0x3e1aa319	0.1510128
137	0x3e05ff3c	0.13085645
138	0x3e1711aa	0.14752832
139	0x3e25d692	0.16195133
140	0x3cb9071d	0.0225864
141	0x3dfe20f8	0.12408632
142	0xbb2d4cc4	-0.002644346
143	0x3dce9fc3	0.10089066
144	0x3dd17bb6	0.10228674
145	0xbdc64a98	-0.096821964
146	0xbdfd874b	-0.12379321
147	0x3d27457d	0.040837754
148	0xbdb2267a	-0.08698745
149	0xbd2a0dfa	-0.041517235
150	0xbe144a6e	-0.14481518
151	0xbd29da89	-0.041468177
152	0xbd73f8d7	-0.059563484
153	0xbde3229b	-0.11090585
154	0xbdb53d4f	-0.08849584
155	0xbdae6729	-0.0851577
156	0xbd99cfd4	-0.07510343
157	0xbd8a8130	-0.06762922
158	0xbdb307d8	-0.087417305
159	0xbc5091ed	-0.012730104
160	0xbddcd172	-0.10782136
161	0xbd8682df	-0.065679304
162	0xbcf1eb34	-0.029531099
163	0x3dbc52f5	0.0919551
164	0xbd90020c	-0.070316404
165	0xbd42cef4	-0.047560647
166	0xbd8a06bc	-0.06739566
167	0xbd422343	-0.04739691
168	0xbd6fdecc	-0.058562085
169	0xbe48a41a	-0.1959385
170	0x3c1b487c	0.009477731
171	0x3dc26bda	0.09493227
172	0x3dfc400f	0.12316906
173	0x3bd02f63	0.006353305
174	0xbde59877	-0.11210721
175	0x3d933da9	0.07189495
176	0x3deec233	0.11658134
177	0xbcfc53fb	-0.030801764
178	0xbdb947e6	-0.09046917
179	0x3d21ce19	0.03950319
180	0x3e1d793c	0.15378278
181	0xbd780437	-0.060550895
182	0x3b46441e	0.0030253003
183	0x3df5f1c3	0.12009003
184	0xbd92f87b	-0.071763
185	0xbde3dfe0	-0.11126685
186	0xbd8dd4f1	-0.06925381
187	0x3d96d69c	0.07365152
188	0x3d06c7b4	0.032905295
189	0xbd1df369	-0.038562212
190	0x3dedddc8	0.11614567
191	0xbd19e3b2	-0.037570663
192	0x3e0b3a4d	0.13596459
193	0x3e1d9e25	0.15392359
194	0x3dfaa378	0.122382104
195	0x3bc43ca7	0.0059886756
196	0x3e17360c	0.14766711
197	0x3dbd4086	0.092408225
198	0xbd81909e	-0.06326412
199	0xbd1a4e9f	-0.037672635
200	0xbd0f5067	-0.034988787
201	0xbca7755f	-0.02044171
202	0x3d39fb0c	0.045405433
203	0x3d17f8a1	0.037102345
204	0x3ab52cb8	0.0013822531
205	0xbdb2524b	-0.087071024
206	0x3c77bc36	0.015120557
207	0x3de8f82e	0.113754615
208	0xbddd4f28	-0.108061135
209	0xbc1c758e	-0.009549512
210	0xbd385e23	-0.04501165
211	0x3dd08eec	0.1018351
212	0x3ceff545	0.029291758
213	0xbdf14912	-0.11781515
214	0xbc885646	-0.0166427
215	0x3ddc8d7a	0.10769172
216	0xbd60b7c7	-0.054862764
217	0xbc1ae337	-0.009453586
218	0x3dae30cf	0.08505403
219	0x3ded07e1	0.115737684
220	0x3beaaa43	0.00716141
221	0xbda26460	-0.07929301
222	0xbe0c298d	-0.13687725
223	0x3b648287	0.003486784
224	0x3ca9a76d	0.020709718
225	0xbd40931e	-0.047015302
226	0xbdf3777b	-0.118880235
227	0xbdafefe5	-0.08590678
228	0x3d373b2d	0.04473417
229	0x3bceb897	0.006308626
230	0xbd306aac	-0.04307048
231	0x3e05239b	0.13001864
232	0x3d31de42	0.043424852
233	0xbe0d78f9	-0.13815679
234	0xbd146dca	-0.036237516
235	0xbd05fc2c	-0.032711193
236	0xbe10cca5	-0.14140566
237	0x3da4d627	0.08048659
238	0xbdf86f4c	-0.12130603
239	0x3d4d7b74	0.050166562
240	0x3c0ec13b	0.008713062
241	0x3cd486bc	0.025943153
242	0x3dde4de1	0.10854698
243	0x3d2de787	0.04245713
244	0xbd9f28b5	-0.07771436
245	0xbd780a9d	-0.060556997
246	0xbca66cf0	-0.020315617
247	0x3d2c3f3c	0.042052492
248	0x3e105eb2	0.14098623
249	0xbd8c8027	-0.068603806
250	0x3e031c22	0.128037
251	0xbd565675	-0.052328546
252	0x3dab5c37	0.08367198
253	0xbdc43654	-0.09580675
254	0xbd8cf842	-0.06883289
255	0x3df9e434	0.122017294

conv1.bias f4 [4]
0	0x3e25528b	0.16144769
1	0x3e3d08dd	0.18460412
2	0xbd596e7c	-0.05308388
3	0xbc77254e	-0.015084578

bn1.weight f4 [4]
0	0x3f871b22	1.0555155
1	0x3f5fc333	0.87407225
2	0x3f9d05b1	1.2267362
3	0x3f4cfe18	0.80075216

bn1.bias f4 [4]
0	0x3d104735	0.03522416
1	0xbdec9d7f	-0.115534775
2	0x3e2798af	0.16366838
3	0xbd4ce5be	-0.050023787

bn1.running_mean f4 [4]
0	0x3e2c2577	0.16811167
1	0x3e2881b7	0.16455732
2	0xbd339971	-0.043847505
3	0xbd126ec8	-0.03575018

bn1.running_var f4 [4]
0	0x3ca11bd2	0.019666586
1	0x3da10f56	0.07864253
2	0x3d07ee9d	0.033186544
3	0x3c5b0153	0.013367015

conv2.weight f4 [8, 4, 4, 4, 4]
0	0x3c00168f	0.007817878
1	0x39ae281d	0.00033217753
2	0xbb9f6a1b	-0.0048649437
3	0xbced057b	-0.028933277
4	0xbd0eaa62	-0.03483046
5	0xbd5c2ee4	-0.053755656
6	0x3aa0cfc8	0.0012268955
7	0x3c9cfa4b	0.019162318
8	0xb964c17b	-0.00021815852
9	0x3d1eb711	0.038748804
10	0x3d666895	0.05625208
11	0xbd66207b	-0.05618332
12	0xbb56c433	-0.0032770752
13	0x3d5779da	0.05260644
14	0x3d2eefc9	0.042709146
15	0x3ce21baa	0.027601082
16	0xbd9cdf1a	-0.07659741
17	0xbc410533	-0.011781025
18	0xbcb7d204	-0.02243901
19	0xbdcfb31c	-0.10141584
20	0xbd6c07ba	-0.057624556
21	0xbd03809c	-0.032105073
22	0x3aaefc6d	0.0013350375
23	0xbceaa03d	-0.02864086
24	0x3be61ce8	0.007022489
25	0xbd3a2f0c	-0.045455024
26	0x3c7657cc	0.015035581
27	0xbd45877b	-0.048224907
28	0xbcb2c1ea	-0.021820981
29	0x3c16b822	0.009199174
30	0xbda5f4dd	-0.081033446
31	0x3c5680fb	0.013092275
32	0x3ca7c26c	0.02047845
33	0x3bc04428	0.0058675
34	0xbdac0814	-0.08399978
35	0xbc83f9bf	-0.0161103
36	0xbc3d7a26	-0.011564767
37	0xbd81b352	-0.06333031
38	0xbd4c19f7	-0.04982945
39	0xbd815540	-0.06315088
40	0x3d1ac461	0.037784938
41	0x3c71cc9b	0.014758254
42	0xbd54b311	-0.051928584
43	0x3d9104b4	0.07080975
44	0xbcf9ae4b	-0.030478617
45	0x3d086033	0.033294868
46	0xbce963a2	-0.028489891
47	0xbc8b5243	-0.017006999
48	0x3cd4072c	0.025882326
49	0x3884644d	6.312933e-05
50	0xbd9ba8b7	-0.07600539
51	0x3d9a4b12	0.0753385
52	0x3cb5e4bb	0.022203794
53	0xbd294e6e	-0.041334562
54	0x3c35eae8	0.011103369
55	0x3dc08181	0.09399701
56	0xbd912231	-0.070865996
57	0x3cbd7481	0.023126842
58	0xbcc4a6df	-0.024005352
59	0x3cf0b29a	0.029382039
60	0xbc7d601b	-0.015464808
61	0x3d1438b2	0.03618688
62	0xbd9a6dcf	-0.075404756
63	0x3ddc29be	0.10750149
64	0x3db03e74	0.08605662
65	0x3cca3987	0.024685634
66	0x3c36ba71	0.0111528495
67	0x3db3905c	0.08767769
68	0x3d45868a	0.04822401
69	0x3d9d121f	0.07669472
70	0x3d5d08bc	0.053963408
71	0x3db4d7fc	0.08830258
72	0x3d01b110	0.031663
73	0x3d97e65b	0.07416984
74	0x3d691002	0.056900032
75	0x3d5079ad	0.05089729
76	0x3ccf0aac	0.025273643
77	0x3d432561	0.04764307
78	0x3d298ad5	0.041392166
79	0x3d5c43f9	0.05377576
80	0x3ce2f8f6	0.027706604
81	0x3dc2feba	0.095212415
82	0x3db200e3	0.086915754
83	0x3d9125fd	0.07087324
84	0x3bc69264	0.0060599316
85	0x3dd65705	0.104658164
86	0xbc59251f	-0.013253479
87	0xbc51b910	-0.01280047
88	0x3d2d7a6c	0.04235308
89	0x3ba8a68a	0.005146806
90	0xbcc6ed39	-0.024283038
91	0xbd1ea3b1	-0.038730327
92	0x3d35fc76	0.04443022
93	0xbd54f326	-0.051989697
94	0xbdb86ca8	-0.090050995
95	0xbd900207	-0.07031637
96	0x3d9f95cf	0.077922456
97	0xbb8269a3	-0.003979878
98	0x3da0f5b7	0.078593664
99	0x3d9cc5df	0.076549284
100	0x3d7be993	0.06150205
101	0xbca5b614	-0.020228423
102	0x3d7a379e	0.061088197
103	0xbbd99192	-0.006639668
104	0x3d1198bb	0.035546046
105	0x3c5cf5e4	0.013486359
106	0xbd067fff	-0.03283691
107	0xbc845953	-0.016155874
108	0xbd8dfbb9	-0.06932778
109	0xbbde5697	-0.0067852247
110	0xbdb0c230	-0.08630788
111	0xbdcf4bf9	-0.101219125
112	0x3d29dfe6	0.04147329
113	0x3d0198d1	0.031639878
114	0x3dc607a7	0.09669428
115	0xbcfc11c7	-0.030770196
116	0x3cb845aa	0.022494156
117	0x3db18dc1	0.086696155
118	0xbcd2a1d1	-0.025711926
119	0xbd2fab6b	-0.042888086
120	0xbb6dc847	-0.0036282705
121	0x3be18ee9	0.0068834913
122	0xbd8b343d	-0.06797073
123	0xbc65d235	-0.014027168
124	0xbd492185	-0.049104232
125	0xbd975561	-0.073893316
126	0xbd4cd20e	-0.05000501
127	0xbe22c30e	-0.1589472
128	0xbc3814e8	-0.011235453
129	0x3c091989	0.008367904
130	0xbd3258ae	-0.043541603
131	0xbd30bbfd	-0.04314803
132	0xbccd81ea	-0.025086362
133	0xbd9822db	-0.07428523
134	0x3c323e06	0.010879045
135	0x3d64eb5b	0.055888515
136	0xbdde650d	-0.10859118
137	0xbc2264ae	-0.009911699
138	0x3a033117	0.00050045684
139	0x3d27d2aa	0.04097239
140	0xbcdb49c1	-0.026768567
141	0x3d514574	0.051091626
142	0x3c83bcd6	0.016081255
143	0xbcc134f3	-0.023584818
144	0xbd766f71	-0.060164873
145	0xbd0c87eb	-0.03430931
146	0xbd40df74	-0.0470881
147	0x3ca76051	0.02043167
148	0xbd54a9b9	-0.051919673
149	0xbc829a4b	-0.015942713
150	0xbcbb2a35	-0.022847274
151	0xbc313d33	-0.010817814
152	0xbd3b5e13	-0.045744013
153	0xbd788deb	-0.06068222
154	0xbd4e49dd	-0.05036341
155	0xbd4ff389	-0.050769363
156	0x3d3ff671	0.046865884
157	0x3d83ea49	0.06441171
158	0x3cc7920a	0.024361629
159	0x3d177d58	0.03698477
160	0xbd41f34f	-0.047351178
161	0xbdb78648	-0.08961159
162	0xbc819805	-0.015819559
163	0xbd3dc630	-0.046331584
164	0x3cc7ec50	0.024404675
165	0xbd51e5c5	-0.051244516
166	0xbc0b3a86	-0.00849784
167	0xbc92c4a1	-0.017916026
168	0x3cd28bcf	0.025701432
169	0xbd6fd099	-0.058548544
170	0x3c87b94f	0.016567854
171	0x3dabc825	0.08387784
172	0x3d79bbba	0.060970046
173	0x3db68514	0.089121014
174	0xbcc7cedb	-0.024390629
175	0x3d4b0968	0.049569517
176	0x3d910002	0.070800796
177	0xbdb693a1	-0.08914877
178	0xbc81874c	-0.015811585
179	0x3dd8f706	0.10593991
180	0x3c9c0aed	0.019048179
181	0xbc458ee7	-0.012057996
182	0xbd21340a	-0.03935627
183	0x3d6df1b2	0.058091827
184	0x3cceacd4	0.025228895
185	0xbd8622d5	-0.065496124
186	0xbd728c6c	-0.059215948
187	0x3d807040	0.0627141
188	0xbc70cfa5	-0.014697944
189	0xbd0c30ab	-0.0342261
190	0x3d1f0018	0.03881845
191	0x3d8fa58c	0.070139974
192	0xbcb0a7f6	-0.021564465
193	0x3b9772f0	0.004621856
194	0xbbe526cc	-0.0069931503
195	0xbd44ec88	-0.048077136
196	0x3c36ae3c	0.011149939
197	0xbc05f4e3	-0.008176061
198	0xbc5f95ec	-0.013646584
199	0xbc213114	-0.009838361
200	0xbc9a7bac	-0.0188578
201	0x3d796a5d	0.06089245
202	0x3db3332f	0.08749997
203	0x3d5d32f5	0.054003675
204	0xbcdb9c61	-0.026807966
205	0x3d2124e5	0.039341826
206	0xbc788997	-0.015169523
207	0x3d29a05f	0.041412707
208	0x3d91b5b9	0.07114739
209	0xbb819b86	-0.0039553074
210	0xbd7cfe5b	-0.06176601
211	0xbd1c98ad	-0.03823154
212	0xbba60118	-0.0050660484
213	0xbd2099af	-0.039209064
214	0x3c8f4858	0.01749055
215	0xbcfe5351	-0.031045588
216	0xbb6113c9	-0.0034344068
217	0xb9187a61	-0.0001454144
218	0xbc367909	-0.0111372555
219	0x3cea7ce6	0.02862401
220	0x3c1d7665	0.009610747
221	0x3d448ab4	0.04798384
222	0xbca681ae	-0.020325508
223	0xbde9f5f1	-0.11423863
224	0x3ce96d35	0.028494457
225	0xbceb9347	-0.02875675
226	0xbd11187e	-0.03542375
227	0xbcec76b9	-0.028865205
228	0x3d8799ab	0.06621107
229	0xbcb08f85	-0.02155281
230	0xbd41e764	-0.047339812
231	0x3c8a8aab	0.016911825
232	0x3d3e531b	0.046465974
233	0x3d2629d0	0.04056722
234	0x3bdfdacf	0.006831504
235	0xbd21d3f5	-0.03950878
236	0x3c775229	0.015095272
237	0x3cfb8472	0.030702803
238	0x3bcb8638	0.0062110685
239	0xbc60c9ec	-0.013720017
240	0x3d1beae8	0.03806582
241	0xbc784bb5	-0.015154769
242	0xbd1a2dcb	-0.037641328
243	0x3df5823b	0.1198773
244	0x3c647509	0.013943919
245	0x3d07da7c	0.033167347
246	0x3b36fbf3	0.002792117
247	0x3de61cdd	0.11235974
248	0x3be5a0f8	0.0070077144
249	0xbc158aa2	-0.009127291
250	0xbcbaa334	-0.0227829
251	0x3d6dd6a5	0.05806603
252	0xbd202621	-0.039098863
253	0xbdd35283	-0.10318472
254	0xbdfdb2d1	-0.12387622
255	0xbc2947cd	-0.01033206

conv2.bias f4 [8]
0	0xbc1841fe	-0.0092930775
1	0xbd0bab0c	-0.03409867
2	0xbca97e5e	-0.02069014
3	0x3cf21a06	0.029553425
4	0x3d009f8b	0.031402152
5	0xbd7237e2	-0.059135325
6	0x3d6f4ed9	0.058424804
7	0x3d84c5e3	0.064830564

bn2.weight f4 [8]
0	0x3f6f74d3	0.93537635
1	0x3f600bad	0.87517816
2	0x3f8bf3ac	1.0933738
3	0x3f4cdf13	0.80027884
4	0x3f51236f	0.8169469
5	0x3f9f695b	1.2454027
6	0x3f5c94b9	0.8616443
7	0x3f642cb3	0.89130706

bn2.bias f4 [8]
0	0xbd54b980	-0.05193472
1	0xbd265e51	-0.04061729
2	0xbd33dfc4	-0.04391457
3	0xbe2f0fac	-0.17095822
4	0xbe1f8221	-0.15576984
5	0xbd5721b9	-0.052522395
6	0xbe38e313	-0.18055372
7	0xbdbb7c88	-0.09154612

bn2.running_mean f4 [8]
0	0xbe81adfb	-0.2532805
1	0xbe044c1d	-0.1291966
2	0x3d050e0a	0.03248409
3	0xbe6d48d7	-0.23172317
4	0xbed2e075	-0.41186872
5	0xbc8d4900	-0.017246723
6	0xbe276ef6	-0.16350922
7	0xbe494935	-0.19656833

bn2.running_var f4 [8]
0	0x3f6a006a	0.9140688
1	0x3eebe5ab	0.4607366
2	0x3ebb7b8f	0.36617705
3	0x3efcd2b0	0.49379492
4	0x3f50e330	0.8159666
5	0x3e0e727c	0.1391086
6	0x3f53beb2	0.8271285
7	0x3f09218e	0.53566825

conv3.weight f4 [16, 8, 4, 4, 4]
0	0xbd2b5fb4	-0.041839316
1	0xbd327bba	-0.043575026
2	0xbcbf7956	-0.023373287
3	0xbcb7a281	-0.022416355
4	0x3cfcc6e6	0.03085656
5	0x3cef4145	0.029205928
6	0x3cce687f	0.025196312
7	0x3c9d859d	0.01922875
8	0xbcc59455	-0.024118582
9	0xbc8347a0	-0.016025364
10	0xbce0f968	-0.027462676
11	0xbd31c497	-0.043400373
12	0xbd04a527	-0.032384064
13	0x3cc84fd0	0.02445212
14	0x3c4fc38e	0.012680901
15	0x3b3ec509	0.0029109141
16	0xbd1fa24f	-0.03897315
17	0x3c4fdc3d	0.012686786
18	0xbce3695c	-0.0277602
19	0x3d1a7595	0.03770979
20	0x3c93a024	0.018020697
21	0x3c1850c4	0.0092966
22	0xbbf0f724	-0.00735368
23	0xbc29ee65	-0.010371779
24	0x3d18c832	0.037300296
25	0xbca1681f	-0.01970297
26	0xbc14eca9	-0.009089627
27	0x3d21cd75	0.03950258
28	0x3bc4fde2	0.0060117105
29	0xbc9f9309	-0.019479292
30	0x3c307f8f	0.0107726
31	0x3bb71bb9	0.0055880216
32	0xbd0f03aa	-0.034915604
33	0x3cb8414d	0.022492075
34	0xbd0f18b7	-0.03493568
35	0x3d285580	0.041097164
36	0xbcb3422e	-0.021882143
37	0xbc780551	-0.015137986
38	0xbd216bbd	-0.039409388
39	0xbbbd7633	-0.0057819127
40	0xbbd41d8f	-0.00647325
41	0x38ffcb84	0.00012197255
42	0xbd954a2d	-0.072895385
43	0xbd02b1c5	-0.031907815
44	0xbbffa3cb	-0.007801508
45	0x3c3cb2bd	0.011517224
46	0xbd1258f2	-0.035729356
47	0xbd3bd83e	-0.04586052
48	0xbd34c447	-0.044132497
49	0xbce79ed9	-0.028273987
50	0xbd2189dc	-0.039438114
51	0x3b3ada45	0.0028511446
52	0xbcc1c735	-0.02365456
53	0x3cda3234	0.026635267
54	0x3d673c7d	0.05645417
55	0x3c42e932	0.011896418
56	0xbd026a17	-0.031839456
57	0x3c122886	0.008920794
58	0x3c58dd30	0.013236329
59	0x3d78bfd0	0.0607298
60	0x3cda2920	0.026630938
61	0x3bed9591	0.0072504957
62	0x3d30a8f0	0.04312986
63	0x3d880011	0.06640638
64	0x3c8b86f5	0.017032126
65	0x3c524d4c	0.012835812
66	0xbcb5f7a4	-0.02221281
67	0xbcf73584	-0.030176885
68	0xbd33a7f5	-0.04386135
69	0xbd20e5a9	-0.03928152
70	0x3d24d9d0	0.040246785
71	0x3b5b1fd7	0.0033435726
72	0x3bc3e863	0.0059786304
73	0xbc6c8b7f	-0.014437555
74	0x3bfbf3f0	0.0076889917
75	0x3be53429	0.0069947434
76	0x3d064077	0.032776322
77	0xbc7eedc7	-0.01555962
78	0x3d1c49ed	0.03815644
79	0x3cf7ec56	0.030264061
80	0x3cb0542c	0.021524511
81	0xbca2f82c	-0.019893728
82	0x3d200566	0.03906765
83	0xbd1cf590	-0.038320124
84	0xbcbdacef	-0.02315375
85	0x3b34b3ae	0.0027572918
86	0x3d25bfeb	0.04046623
87	0x3c9c96d6	0.019114893
88	0x3be92386	0.0071148304
89	0x3d09679c	0.033546075
90	0x3c53730a	0.012905845
91	0x3d077f23	0.03308023
92	0xbbc13f2e	-0.005897424
93	0xbcc99695	-0.024607936
94	0x3d0ad95f	0.033898707
95	0x3ccc594d	0.024944926
96	0xbc978172	-0.018494342
97	0x3cbe5a1f	0.023236332
98	0xba5d629c	-0.0008445175
99	0x3c877f06	0.016540062
100	0x3d303002	0.043014534
101	0xba829659	-0.000996302
102	0xbcf7fcc0	-0.030271888
103	0x3dac89ee	0.084247455
104	0xbd09d3ef	-0.03364938
105	0x3b9868b5	0.004651154
106	0xbce19c66	-0.027540397
107	0xbd205dcd	-0.039151955
108	0xbcc358f5	-0.023846129
109	0x3cca7d5b	0.024717977
110	0x3d1c427e	0.03814935
111	0x3cafc203	0.021454817
112	0x3cf96046	0.030441415
113	0x3c9153f3	0.017740225
114	0xbd30a473	-0.04312558
115	0x3d0a164d	0.033712674
116	0xbc7cc5dc	-0.015428033
117	0xbd5568f5	-0.052102048
118	0xbd4fdd0d	-0.05074792
119	0x3cb160a4	0.021652527
120	0xbc52ea6e	-0.012873275
121	0x3cd5b768	0.026088431
122	0xbbfaf7d0	-0.007658936
123	0x3d0c27f1	0.03421778
124	0x3d216dd8	0.039411396
125	0x3c840689	0.016116397
126	0xbd53839a	-0.051639177
127	0x3c1fc2f5	0.009751071
128	0xbd301f28	-0.042998463
129	0xbccdf749	-0.025142329
130	0xbc9379f5	-0.01800249
131	0x3a756413	0.00093609205
132	0xbd0b89bf	-0.03406691
133	0xba9dd935	-0.0012042882
134	0xbd0aef24	-0.03391947
135	0xbd075b12	-0.033045836
136	0xbd345780	-0.04402876
137	0x3d109569	0.03529874
138	0xbd1169d3	-0.035501312
139	0xbc46cc27	-0.012133635
140	0xbd147869	-0.036247645
141	0x3c32f5fa	0.010922903
142	0x3cf48bf7	0.029851897
143	0xbb47223e	-0.00303854
144	0x3cf0f122	0.029411856
145	0xbbed080f	-0.0072336267
146	0x3c8cf389	0.01720597
147	0x3d2d624f	0.042330083
148	0xbd2fedee	-0.042951517
149	0x3d0faa0e	0.035074286
150	0x3cf9d199	0.030495452
151	0xbd307836	-0.043083392
152	0xbd22f011	-0.039779726
153	0xbbf6b994	-0.007529447
154	0xbd8ee331	-0.06976927
155	0xbca0a108	-0.019608036
156	0x3ca59fdb	0.020217827
157	0xbcac4618	-0.021029517
158	0x3d239f0d	0.039946605
159	0x3c9bec94	0.019033708
160	0xbb2be769	-0.002623046
161	0xbc264029	-0.010147133
162	0x3c2a0770	0.01037775
163	0xbc1c60b2	-0.009544538
164	0xbd200123	-0.039063584
165	0xbd655a0a	-0.05599407
166	0xbd2f295e	-0.04276406
167	0x3d003775	0.031302888
168	0xbd144d0f	-0.0362063
169	0xbcf596f2	-0.029979203
170	0x3ca391ef	0.019967047
171	0xbd0507dd	-0.032478202
172	0xbd18efc9	-0.037338052
173	0x3d167559	0.036733005
174	0x3ce610dc	0.028084211
175	0xbd0d1904	-0.034447685
176	0xbd242961	-0.040078525
177	0x3cd4d809	0.02598192
178	0xbc22da00	-0.009939671
179	0xbd15cd9f	-0.03657305
180	0xbd338935	-0.043832023
181	0xbd208b35	-0.03919526
182	0xbd644385	-0.055728454
183	0x3b4da2e5	0.003137761
184	0xbcdda74f	-0.027057318
185	0xbc43ee4c	-0.01195867
186	0xbb8579d3	-0.0040733605
187	0xbd881aba	-0.06645723
188	0xbd12b8f1	-0.035820905
189	0xbcdd602a	-0.027023394
190	0x3d32bf46	0.043639444
191	0xbd7c77f8	-0.06163785
192	0x3cb55fcd	0.022140408
193	0xbd13976f	-0.03603309
194	0xbcae3e10	-0.021269828
195	0x3cf4d151	0.029884966
196	0x3d0da133	0.03457756
197	0x3cffd257	0.031228228
198	0xbc830695	-0.01599435
199	0xbc82596e	-0.015911784
200	0xbcec1adb	-0.0288214
201	0xbc4e1213	-0.012577551
202	0xbc369296	-0.011143347
203	0xbccd9fd3	-0.025100624
204	0xbccfa5e4	-0.025347658
205	0x3b9d0584	0.0047919173
206	0xbceb6f35	-0.028739551
207	0x3b8977dd	0.004195197
208	0xbc32a66e	-0.010903938
209	0x3d28b83f	0.041191336
210	0xbcc937ae	-0.024562683
211	0x3c41c3ce	0.011826469
212	0x3ce25539	0.027628528
213	0x3cb6d0f1	0.022316428
214	0x3ce1dad0	0.027570158
215	0xbbad2a96	-0.0052846177
216	0x3d20b056	0.039230667
217	0xbcae09bf	-0.021244882
218	0x3ce16524	0.027514048
219	0x3d0c811f	0.034302827
220	0x3d2b493e	0.041817896
221	0x3a347480	0.0006883815
222	0x3d07449c	0.033024415
223	0xbcaf9c42	-0.021436814
224	0x3d044988	0.032296687
225	0x3d037d92	0.032102175
226	0x3b1a1de8	0.002351636
227	0x3cd14334	0.02554474
228	0x3be4243c	0.0069623273
229	0x3cbf3845	0.023342261
230	0x3ba44f51	0.005014338
231	0x3c63ca95	0.01390328
232	0x3c4d0f74	0.012515891
233	0x39c6cbb6	0.0003791728
234	0xbc41ac31	-0.011820839
235	0x3b2fd1ab	0.0026827853
236	0x3d1ab785	0.037772674
237	0xbd7c6d23	-0.06162752
238	0xbd27e71d	-0.04099189
239	0x3d2db694	0.04241045
240	0xbc82bf41	-0.015960338
241	0x3c9b7740	0.018977761
242	0x3cbb2194	0.02284316
243	0x3d0cd79a	0.0343853
244	0x3d194b48	0.03742531
245	0xbcaef787	-0.021358265
246	0x3cb14059	0.021637129
247	0x3d49fdc0	0.04931426
248	0xbca157eb	-0.019695243
249	0x3d265c35	0.04061528
250	0x3c8c1e46	0.01710428
251	0x3d9c0a23	0.07619121
252	0x3b507652	0.0031808806
253	0x3bda5614	0.0066630933
254	0xbb05a932	-0.0020395038
255	0x3b61af18	0.003443664

conv3.bias f4 [16]
0	0xbd448b7c	-0.047984585
1	0xbd4bd004	-0.049758926
2	0xbcf2df80	-0.029647589
3	0xbcaae8ed	-0.02086302
4	0xbca13fab	-0.01968368
5	0x3cd0f91c	0.02550941
6	0x3c37c742	0.01121694
7	0x3ce8aa5b	0.028401544
8	0xbcf0339e	-0.029321488
9	0x3ca72126	0.020401549
10	0x3d1721c2	0.03689743
11	0x3d3a6189	0.045503173
12	0xbcd2fc79	-0.025755154
13	0x3b961c1c	0.0045809876
14	0x3d3f2d75	0.04667421
15	0xbc65d2c0	-0.0140272975

bn3.weight f4 [16]
0	0x3fb2f068	1.3979616
1	0x3fa7a67c	1.3097682
2	0x3fb09bec	1.3797584
3	0x3fc4edcd	1.5385071
4	0x3fa094bb	1.2545389
5	0x3fa78b47	1.3089379
6	0x3fc0bc21	1.5057412
7	0x3fa08592	1.2540762
8	0x3fc27db9	1.5194618
9	0x3fad280f	1.352785
10	0x3fa33164	1.2749448
11	0x3fa05cc4	1.252831
12	0x3fa06575	1.2530962
13	0x3f9fc996	1.2483394
14	0x3fa95a7a	1.3230736
15	0x3fca2452	1.5792334

bn3.bias f4 [16]
0	0x3ea380fa	0.3193434
1	0x3e2e1eb9	0.17003907
2	0x3e93698f	0.28791472
3	0x3ecc944d	0.39956895
4	0x3e28ad5a	0.16472378
5	0x3e2eceac	0.17071027
6	0x3eabcff6	0.335571
7	0x3e052c49	0.13005175
8	0x3ed1d121	0.40979865
9	0x3eacf277	0.33778736
10	0x3e1fd2d4	0.15607768
11	0x3e1fa2c0	0.15589428
12	0x3e25d681	0.16195108
13	0x3e33a15f	0.17542027
14	0x3ebbb709	0.36663082
15	0x3ed8d260	0.42348003

bn3.running_mean f4 [16]
0	0xbda66509	-0.0812474
1	0xbe3c116b	-0.1836602
2	0xbe21702c	-0.15765446
3	0xbe6fb03f	-0.23407076
4	0xbde803fd	-0.11328886
5	0xbdc39add	-0.09551022
6	0x3c31b159	0.010845506
7	0xbcd5611e	-0.026047286
8	0xbcb1830b	-0.021668931
9	0x3dd1e5e7	0.102489285
10	0xbd837231	-0.06418265
11	0xbd567d83	-0.05236579
12	0xbb47a1d4	-0.0030461447
13	0xbd1cb0b1	-0.038254444
14	0xbc59448d	-0.013260973
15	0xbd161d9b	-0.036649328

bn3.running_var f4 [16]
0	0x3e4daecc	0.20086211
1	0x3d8700ca	0.065919474
2	0x3e61f1ad	0.22064848
3	0x3ea0c864	0.31402886
4	0x3d31e8a2	0.043434747
5	0x3da4c55e	0.08045457
6	0x3ec3c2f7	0.38234684
7	0x3d4010b7	0.04689094
8	0x3dd212d7	0.102575
9	0x3d57aa3a	0.052652575
10	0x3d5b2894	0.053505495
11	0x3d53801d	0.05163585
12	0x3d62737e	0.055285923
13	0x3d509b05	0.05092909
14	0x3d23de68	0.040007025
15	0x3d6bfce3	0.05761422

linear.weight f4 [2, 16]
0	0xbef7dd5b	-0.48411068
1	0x3ef0302c	0.46911752
2	0xbed2a574	-0.41141856
3	0xbec49528	-0.38395047
4	0x3e6e7264	0.23285824
5	0x3ede4bf6	0.4341733
6	0xbf0e1fc8	-0.55517244
7	0x3ee8d2c3	0.45473298
8	0xbe79be95	-0.24389108
9	0xbe5650f9	-0.20929326
10	0x3e936e1d	0.28794947
11	0x3e9c978e	0.30584377
12	0x3e488558	0.19582117
13	0x3eaa008a	0.33203536
14	0xbdfc4c15	-0.12319199
15	0xbf12f521	-0.5740529
16	0x3ec68acd	0.38777772
17	0xbc93fd3c	-0.018065087
18	0x3f09e7cf	0.53869337
19	0x3ed9f036	0.4256608
20	0xbed28d9f	-0.41123673
21	0xbd14db4d	-0.036341954
22	0x3e88cb54	0.26717627
23	0xbe852d5b	-0.26011166
24	0x3ed83ae9	0.42232445
25	0x3eea633f	0.45778844
26	0xbe38839f	-0.1801896
27	0xbee9d3a1	-0.45669273
28	0xbee8531a	-0.453759
29	0xbe72db81	-0.23716547
30	0x3eed48e0	0.46344662
31	0x3dc73c35	0.097282805

linear.bias f4 [2]
0	0xbea59b3f	-0.32345006
1	0xbdeceabc	-0.115682095
