E2/exercise_2/runs/2_2_simple_nn/model_best.ckpt (torch, 49813 bytes, 20 tensors)

conv1.weight f4 [4, 1, 4, 4, 4]
000000 ce 85 f1 3c 19 3d 06 be fc 7a 89 3d 85 04 8a 3d
       0.029482748 -0.13109244 0.067129105 0.06739143
000010 05 1d 9b 3d 25 70 25 bd 66 e7 ab bb 79 61 b4 bb
       0.075738944 -0.040390152 -0.0052460907 -0.0055047837
000020 a5 c5 7d 3c 82 21 a2 3d 41 11 70 bd 12 74 c3 3d
       0.015489017 0.07916547 -0.058610205 0.09543623
000030 31 18 a6 bd d7 2a 1e bd 96 8b d8 3c 42 6d 8d 3d
       -0.08110083 -0.038615074 0.026433747 0.06905605
000040 2c d8 ed bb 8b 66 c1 bc cb 59 5e bd 09 b2 49 3d
       -0.0072584357 -0.023608467 -0.054284852 0.049242053
000050 da fe fa bd 70 75 00 bd ae 33 2f bd 81 93 84 bd
       -0.1225564 -0.031361997 -0.042773895 -0.06473447
000060 b4 cc 9a bd af dc 73 bd 13 87 05 bd 8c 9a 6e 3d
       -0.07558575 -0.059536632 -0.03259952 0.058252856
000070 a8 1a cf bb c8 a2 ff bd fe 9e ee bd a6 b0 90 bd
       -0.0063203163 -0.1248222 -0.11651419 -0.07064943
000080 99 7e 97 bd cc ed 29 be d9 f0 48 3d 68 96 70 bc
       -0.073971935 -0.16594619 0.049057815 -0.014684297
000090 39 ce d9 bc a2 8e 82 3d 1a 2e 4c bd 73 83 a8 bc
       -0.026587592 0.06374861 -0.049848653 -0.020570492
0000a0 e8 41 29 bb 67 d2 2b bd d0 f1 ed bd d8 ed 85 bc
       -0.0025826637 -0.041948702 -0.11618388 -0.016348764
0000b0 4e b2 83 3d d1 01 61 bd 96 d8 dc bc 72 20 13 3e
       0.06430493 -0.054933373 -0.026958745 0.14367846
0000c0 7f 79 f7 3d 53 3f 8c bd c9 2c 2f 3c 94 7d cd 3d
       0.120837204 -0.06848016 0.01069183 0.10033718
0000d0 76 a6 02 3d 10 71 07 3e bb 5d 7b 3d c5 83 56 bd
       0.03189703 0.13226724 0.061368685 -0.05237176
0000e0 64 15 b7 3d 30 74 f1 3d 9b 31 21 bd c5 d8 26 3e
       0.08939627 0.11789739 -0.039353948 0.16293629
0000f0 22 a4 5c 3c b7 a4 14 bd c2 21 3c 3c aa db 10 3e
       0.013466867 -0.036289897 0.011482658 0.14146295
000100 31 1f 95 3c 04 69 41 bc a5 a1 fb 3d a2 4f 9d 3d
       0.01820335 -0.011804823 0.122866906 0.076812044
000110 82 60 ad 3c 6f 16 43 bd 5f 0e 88 3d b3 26 95 bd
       0.021164183 -0.047628816 0.06643366 -0.07282772
000120 b8 8c 94 3d c0 01 2c 3e 67 de be 3d 42 6c b6 3d
       0.072534025 0.16797543 0.09319764 0.08907367
000130 b1 7a e3 3a fb 1a b8 bd 0c ab f0 bc 37 93 ff 3d
       0.001735529 -0.08989521 -0.029378437 0.12479251
000140 71 10 04 3d 72 45 fd bd 54 8f 2a be cb 58 86 3d
       0.032242242 -0.12366761 -0.16656238 0.06559905
000150 5a b7 72 3d 28 1f df bd e0 ab 17 bd 35 00 0b 3d
       0.05925689 -0.108946145 -0.037029147 0.033935744
000160 f1 d1 f3 3d 0c a9 8d bd 3d 72 a4 3c c3 8d 5e 3d
       0.119052775 -0.06917009 0.020074004 0.054334413
000170 89 4b 8f bd cc d4 0d 3c 90 71 31 be 23 21 e7 bc
       -0.06996829 0.008656692 -0.17328477 -0.028214043
000180 3c 89 be 3d 05 07 c9 bd a2 f6 8b bd be 1b d3 bd
       0.09303519 -0.09815792 -0.06834151 -0.10308026
000190 e8 ce b9 3d 0b 98 94 3b 9f af c3 bd 62 81 c9 bd
       0.09072667 0.0045347265 -0.095549814 -0.09839131
0001a0 f9 ef 3d 3d 5e ce f9 bd 7e 84 09 be 31 f3 e9 3d
       0.046371434 -0.121975645 -0.13429448 0.11423338
0001b0 5d bf dd bc 11 f5 1f 3c c5 02 22 bd e7 40 1b 3d
       -0.027068788 0.009763018 -0.039553422 0.037903693
0001c0 dd 79 8a 3c c7 38 8b 3d e6 d1 dc bd 7e 3f cc 3d
       0.016903812 0.06797939 -0.107822224 0.09973048
0001d0 39 16 8f bd d8 d0 52 bd 47 05 75 bd 38 35 99 3c
       -0.069866605 -0.0514687 -0.059819486 0.018702134
0001e0 72 28 d9 bc d5 4a 9d bc 9c 5b aa 3d b0 6b 28 3d
       -0.026508544 -0.019200722 0.08318254 0.041118324
0001f0 f1 f2 da 3d bc 4a 97 3d ce 75 34 bd bb af 96 3d
       0.10690869 0.07387301 -0.04405766 0.07357737
000200 8b 72 45 bd 08 9d ab 3d e6 fa ca bd 36 13 82 bc
       -0.04820494 0.08379561 -0.09911136 -0.015878301
000210 6c 53 a8 bd f7 2f a0 bd cc ad c3 bd 49 0a 8c bb
       -0.082190365 -0.078216486 -0.095546335 -0.004273687
000220 e0 bc a9 bd 97 6f 1b bd 43 0a 08 3e 37 c8 1b bd
       -0.08287978 -0.037948217 0.13285165 -0.038032737
000230 a8 4b 79 3d 69 dd ee bd ec 65 89 bd db 52 9c 3d
       0.060863167 -0.116633244 -0.06708893 0.07632991
000240 94 ab 54 3d 54 96 25 bd 98 99 3c bc 7f aa a7 bc
       0.051921442 -0.040426567 -0.011511229 -0.020467041
000250 fb a6 f2 3d 18 7b b1 3d d8 fb 6d 3d f8 e6 04 bc
       0.11848255 0.086660564 0.058101505 -0.008111708
000260 12 b0 f9 3d 62 6f b6 bb de 3e 6e 3e eb 52 13 3e
       0.12191786 -0.005567477 0.2326617 0.143871
000270 c3 08 a4 bd 35 d3 c1 3d 2a d5 13 3e 57 b2 5c 3d
       -0.08009484 0.09464113 0.14436784 0.053881016
000280 aa 9e 13 3c cb 91 e9 3d d6 a4 94 bb 06 54 c7 bd
       0.009009996 0.11404761 -0.0045362515 -0.09732823
000290 d5 ec 8b bb 95 aa 49 3e 0d c4 0b 3e 66 88 aa b9
       -0.004270176 0.19693978 0.13649006 -0.00032526552
0002a0 b1 68 23 3d 68 d9 66 3e 72 ff 51 3d a0 88 50 bd
       0.039894763 0.22543871 0.051269002 -0.050911546
0002b0 98 5c 25 bc af 5e 5b bd a2 bc 8f bd 0e e6 49 bd
       -0.010092877 -0.053557094 -0.07018401 -0.049291663
0002c0 43 10 15 3c 85 af e1 bd 74 a2 24 3d 2f 33 2a bd
       0.009098115 -0.11019806 0.04019399 -0.04155272
0002d0 6e ba 77 3d 6b 31 fc 3d 52 89 75 bc 8c b6 0e bd
       0.060480528 0.12314113 -0.014986353 -0.03484206
0002e0 58 00 de bd b6 27 00 3e b6 b3 97 3d 80 68 a6 3d
       -0.10839909 0.12515149 0.07407324 0.081254005
0002f0 81 b1 ae bd 87 a5 17 be 56 cf 1a bd 7e 03 82 bd
       -0.0852995 -0.14809237 -0.037795387 -0.06348322
000300 6c 44 aa 3b c2 a9 a9 3d 4b de 2d bb dd 6f 96 3b
       0.005196145 0.08284332 -0.0026530202 0.004590972
000310 2f 66 32 3e a6 61 04 3d 73 1a 36 bd 25 66 f6 3d
       0.17421792 0.032319687 -0.044458818 0.12031201
000320 1f a0 93 3d 6f 72 8b bc 86 d7 0c bd 4b b3 50 3d
       0.07208275 -0.01702234 -0.034385227 0.050952237
000330 4a 03 83 3c e3 2c b2 bb bc 06 0c 3e bb e6 98 3d
       0.01599278 -0.00543748 0.13674444 0.07465883
000340 d0 9a 7a 3c 53 de b6 bd 8b d9 e5 bc 89 a7 92 bd
       0.015295699 -0.08929124 -0.028057834 -0.07160861
000350 6d 24 c3 bd 69 d4 a2 bd c7 5a 48 bd f8 15 e4 3d
       -0.09528432 -0.0795067 -0.048914697 0.11137003
000360 ee 14 9f 3d b6 74 69 3d a7 8e c8 3c 52 8c 83 3d
       0.07767664 0.05699607 0.024482084 0.06423248
000370 2a 76 8a bd 29 6c bd 3d 90 0d 98 bd 93 1f cb bd
       -0.06760819 0.092491455 -0.07424462 -0.09918132
000380 22 ab 82 bd e1 ff da bd cc 48 a1 3c 40 84 b1 3c
       -0.06380297 -0.10693336 0.019688033 0.021669507
000390 7a 4d e9 3d e6 0d 8f bd 4a 72 cb 3c d3 29 90 3d
       0.113917306 -0.06985073 0.02483477 0.07039227
0003a0 73 8b ec 3d 00 81 8f 3d 79 ee 3f bd fd 8c c5 bc
       0.11550035 0.07007027 -0.046858285 -0.02411508
0003b0 86 f8 96 3c af c6 12 3a 57 c2 1f bd 5f 04 58 3d
       0.018429052 0.0005599064 -0.039003696 0.052738544
0003c0 da 4b e0 bd b6 ab bc 3c c5 c5 96 bc 8b 27 66 3d
       -0.109519675 0.023031097 -0.01840485 0.056190055
0003d0 b4 00 93 bd 87 35 8a 3d 6d 8c 8d bd af e2 70 3d
       -0.071778685 0.06748491 -0.0691155 0.058809932
0003e0 86 e3 48 ba b8 64 7b bd d3 90 00 3e 4a bd 12 3e
       -0.0007663298 -0.06137535 0.12555246 0.1433002
0003f0 de 4f 0c 3e 52 4f dc bd 24 94 c6 3a 46 fd 22 bd
       0.13702342 -0.10757317 0.001515035 -0.03979232

conv1.bias f4 [4]
000000 fa f0 6c 3c 15 cc f7 bd 65 73 51 bd 7d 25 45 bd
       0.01446175 -0.120994724 -0.05113544 -0.048131455

bn1.weight f4 [4]
000000 d9 42 98 3f 17 89 97 3f b1 47 64 3f 47 65 3f 3f
       1.18954 1.1838712 0.8917189 0.7476391

bn1.bias f4 [4]
000000 12 6c 7e 3e 1a 3f 15 3e 10 12 0a be 89 b5 0c be
       0.24845913 0.14574853 -0.13483453 -0.13741125

bn1.running_mean f4 [4]
000000 77 43 95 3c 92 7c f4 bd 24 90 a7 bd 63 48 a2 bd
       0.018220646 -0.119378224 -0.081817895 -0.07923963

bn1.running_var f4 [4]
000000 31 53 45 3c ef e2 22 3c 16 e9 cc 3d 9c 89 34 3d
       0.01204376 0.0099418005 0.10005395 0.044076547

conv2.weight f4 [8, 4, 4, 4, 4]
000000 d5 e5 3e 3d a6 c4 36 3d e5 cb 09 3c 40 a2 05 bc
       0.046605904 0.044621132 0.008410429 -0.008156359
000010 d6 af 2d 3d 04 41 a6 3d 5c 9a 9d bb b7 18 81 bc
       0.04240402 0.081178695 -0.004809661 -0.015758855
000020 08 0d 00 3c 69 88 04 bd cf e0 86 3c c8 1d 46 bc
       0.007815607 -0.032356653 0.016464619 -0.012092061
000030 64 34 0d bd 18 d4 34 bc 8c b0 1c bd f4 1e 77 ba
       -0.03447379 -0.011036895 -0.038254306 -0.00094269146
000040 41 51 9b 3d d8 88 52 3c 44 4d b8 3c 3f 09 b4 bb
       0.07583857 0.012850009 0.02249778 -0.0054942663
000050 fa 83 0c bb c9 5d 7c 3d a6 57 50 3d 81 0e 24 bd
       -0.002144097 0.061612878 0.050864838 -0.040052895
000060 e1 ca 44 bd ff 79 54 bd 13 50 40 bd ac 52 c4 bd
       -0.048045043 -0.051874157 -0.046951365 -0.09586081
000070 56 cd 74 3d 04 2c 4d bc d4 8c e4 3c 69 7f 8b bd
       0.059766136 -0.012522701 0.027899183 -0.06811411
000080 50 a2 48 b7 fb 07 97 3c e7 ce 8c 3b 61 f8 a3 3c
       -1.195872e-05 0.018436423 0.0042971256 0.020015897
000090 df 54 61 bd d2 a6 d0 3c 9a db 12 bc 4a cc 08 bd
       -0.05501258 0.025470171 -0.00896349 -0.03339795
0000a0 6e 0f 96 bd 12 89 77 bc e2 2c 35 3d c6 de 95 bd
       -0.07327162 -0.015108364 0.044232257 -0.07317881
0000b0 12 35 68 bd 51 0f 6e 3d a3 a0 3c bc 0c bb a9 bd
       -0.056691237 0.058120076 -0.011512908 -0.082876295
0000c0 c9 75 1c 3e ba 2e 82 3d 55 5c 5a 3d 67 65 d0 bc
       0.15279306 0.06356569 0.05331071 -0.025438977
0000d0 4c f7 c5 3d 7d 90 01 3e 6e c1 7f 3d b4 b9 ba bd
       0.09666309 0.12652774 0.06244033 -0.09117451
0000e0 c8 a6 2b 3e eb 1e b5 3d 96 24 0a bd e9 ed a6 bd
       0.16762841 0.08843788 -0.033726297 -0.081508465
0000f0 69 45 54 3e c4 f0 c3 3d b5 49 c9 bd f2 72 cc bc
       0.20729603 0.09567407 -0.098285116 -0.024957154
000100 df e5 31 bd b4 e0 10 3c f3 5c b7 bc 3d a2 8a 3d
       -0.043432113 0.008842636 -0.022383189 0.06769226
000110 98 bc 41 3d c7 f0 39 3d 58 d2 ea 3c cd 11 d7 ba
       0.047298998 0.04539564 0.028664753 -0.0016408503
000120 dc c2 15 3d b3 be 81 bb 3a 95 1c bd 0d 8d 84 bd
       0.036562786 -0.0039595007 -0.03822825 -0.06472216
000130 01 ea 7c 3b 15 5a f9 3c ed 56 76 bc c6 5e 1e bd
       0.0038591626 0.030438462 -0.015035373 -0.0386646
000140 a2 c9 47 3d 89 67 8c bb 46 c2 72 3d d6 5a c5 bc
       0.048776276 -0.0042848033 0.059267305 -0.024091166
000150 30 7d 89 3d a8 3c eb bc 86 5e 2e 3d 8f cb 03 bd
       0.06713331 -0.028715447 0.042570613 -0.03217655
000160 f7 e9 0d bd 51 c9 25 3d 9a 4c 76 bd 25 7f b5 3c
       -0.034646954 0.040475193 -0.060131647 0.022155354
000170 12 c5 08 3b 52 b9 17 bd 01 84 83 bd f3 d3 a6 bd
       0.0020869416 -0.03704197 -0.06421662 -0.08145895
000180 07 2c 92 3d 39 5e a6 bc 12 27 b7 bb 20 c7 10 bd
       0.07137304 -0.0203086 -0.0055893743 -0.03534615
000190 7b 65 e6 3c 89 92 47 bc 6b 0d 85 bc bb f6 5d bd
       0.028124562 -0.012180933 -0.01624175 -0.05419038
0001a0 1c 13 93 3d d3 e1 72 3c 50 01 0a 3d e8 a3 36 bc
       0.07181379 0.0148243485 0.033692658 -0.011147477
0001b0 e0 9c 69 bd 96 55 bf bd be 83 e3 bd a6 50 a2 bd
       -0.057034373 -0.09342496 -0.11109112 -0.07925539
0001c0 75 b9 c7 3d 8a f3 52 3d b7 61 4d bd 3a 5b 7f bd
       0.0975217 0.05150179 -0.050142016 -0.06234286
0001d0 f9 96 c5 3d b2 d8 8b bd 3f 9a 57 bd 46 bc aa bd
       0.096479364 -0.06828441 -0.052637335 -0.083366916
0001e0 61 df 27 3e 4a b1 2f 3d 5e c2 0b bd 46 be 22 bc
       0.16393806 0.042893685 -0.03412091 -0.00993306
0001f0 2a 8e 09 3e 8d 6a d0 bd a4 73 62 bd b4 14 2f 3c
       0.13433138 -0.10176573 -0.055286065 0.010686088
000200 c7 e1 bf 3c f5 dc 8a 3d ce d6 4b 3d 15 bf 3d bc
       0.023423089 0.067804255 0.0497654 -0.011581202
000210 a6 ec 9d bc 67 f0 98 3d ea a3 83 3d cd 7d 04 bd
       -0.019277882 0.07467728 0.064277485 -0.032346535
000220 30 f3 bd 3d 9d a4 46 3d 34 b2 e4 3c 3f 44 14 3d
       0.092749 0.04849683 0.027917005 0.036197897
000230 63 48 95 3d 69 1e 44 bb 1a d5 d7 3c 63 f1 2d 3c
       0.07289197 -0.0029925352 0.026346732 0.010616633
000240 b5 8c 58 bd 4c 27 99 bc f9 fa 53 bc d4 24 5e 3d
       -0.052868564 -0.018695496 -0.0129382545 0.05423434
000250 33 88 4e bd 64 3b 26 3d b5 0d bf 3c 5e 4f 62 bd
       -0.05042286 0.040583983 0.023321966 -0.05525147
000260 aa 7e 1b 3d ff 47 09 bc 90 4e 44 3d 71 f8 1d 3d
       0.037962593 -0.008378982 0.047926486 0.03856701
000270 47 80 00 bd f7 85 93 3b 5b 91 1d bd fd 39 37 bd
       -0.031372335 0.004502054 -0.0384687 -0.044733036
000280 57 93 93 bc 38 d9 8a 3d 58 c9 98 3d bb 33 93 3d
       -0.018014593 0.067797124 0.07460278 0.07187601
000290 72 0a 16 bd 51 41 2d 3d 20 72 e5 bc 0d 0b 67 3d
       -0.036631055 0.04229862 -0.02800852 0.056407023
0002a0 ac 58 6b 3c d8 c4 e4 bc bb 68 ab 3d 4e b6 2e bc
       0.014364403 -0.027925894 0.08369585 -0.010663582
0002b0 6b dc ea 3c e1 b8 23 3d 64 c0 15 bd ee f0 6e bc
       0.028669557 0.039971236 -0.03656043 -0.014583809
0002c0 7d dd 14 3d 05 da e9 bb be e3 0e bd 13 01 ee ba
       0.03634404 -0.0071365857 -0.03488516 -0.0018158279
0002d0 82 6f 1e 3b 41 da 2f bd b0 77 5f bb 9f 6c 40 bd
       0.002417535 -0.042932753 -0.003409844 -0.04697859
0002e0 62 30 67 3a ed f5 33 bd 91 fe 8b 3d 43 7b 83 bc
       0.000881916 -0.043935705 0.06835664 -0.016049987
0002f0 a3 fc 9d 3c 84 31 77 bd 3e 97 a7 3c f1 69 7d bc
       0.019285506 -0.060349956 0.02045786 -0.015467153
000300 41 d0 2e bc fd 49 8c 3d 24 29 00 3d 65 a0 8c 3d
       -0.010669769 0.0685005 0.031289235 0.0686653
000310 87 ed 43 3d 6f b8 83 3a cc fb ef bc cd 9d ce bc
       0.047833946 0.0010049472 -0.02929487 -0.02522173
000320 f3 a3 b0 bc 55 af 17 bd dd e9 c1 bc 64 f7 f9 bc
       -0.021562552 -0.037032444 -0.023671085 -0.030513473
000330 af f0 8b 3c 15 23 fa 3c 96 45 ab bb b2 a6 4c 3d
       0.01708254 0.030534307 -0.005226801 0.04996366
000340 93 15 80 3c 84 cd 55 3d b4 fe 8a 3b d3 54 c2 3c
       0.015635287 0.052197948 0.0042417888 0.023722088
000350 38 cb 52 3d 60 54 34 3b 71 50 04 bd d3 4d fe 3a
       0.051463336 0.0027516112 -0.032303277 0.0019401856
000360 39 7e f1 3c 8c f2 8b bb 7c 05 38 3d 7f f2 34 bd
       0.029479133 -0.004270857 0.044927105 -0.044176575
000370 82 26 46 3d fc 51 ae bc c9 ea 08 bd 84 ae d3 bc
       0.048376568 -0.021279328 -0.033427034 -0.025840051
000380 1d f3 6b 3d 11 98 fb bc 61 73 65 3d c7 9d 08 bd
       0.057604898 -0.03071216 0.056018237 -0.033353593
000390 e7 da 46 3d 51 3e a1 bc 3c 36 3e bc c3 4b 3f 3c
       0.048548605 -0.019683035 -0.01160961 0.011675778
0003a0 1c dc f9 bb 87 d2 b1 3c 45 6e 01 bc 3a a4 04 3d
       -0.007625116 0.021706833 -0.007899825 0.03238318
0003b0 b4 53 85 3d 08 4c 24 bc e1 ca 0c 3c 35 cd d7 3c
       0.06510106 -0.010027893 0.008593292 0.026342968
0003c0 6e c1 7b bb 63 64 e0 3c 28 68 f7 bc 0f 5a b8 3c
       -0.0038414854 0.027391618 -0.030201033 0.02250388
0003d0 7c c2 25 3d 75 73 73 bd b4 a1 ee bb 8b ab 1a bd
       0.040468678 -0.05943628 -0.00728246 -0.037761252
0003e0 b0 18 88 3c 02 40 1c 3d a0 96 23 3d f3 0a 95 bd
       0.016613334 0.03814698 0.03993857 -0.07277479
0003f0 1c 89 e8 3c e2 66 d1 3c 59 36 b4 bd 89 e2 d6 bd
       0.028385691 0.025561754 -0.087994285 -0.10492427

conv2.bias f4 [8]
000000 34 20 bb 3c 1b 2d 56 bc 81 40 36 bd e3 79 1e bc
       0.022842504 -0.013072277 -0.04449511 -0.009672615
000010 18 0e 52 3d 52 ae b4 3b 72 bd 12 bd 3c ec 1f 3d
       0.051282972 0.0055139447 -0.0358252 0.03904365

bn2.weight f4 [8]
000000 8c ae 7c 3f 32 5a 5f 3f 01 df 92 3f bf c3 61 3f
       0.9870384 0.87247 1.1474305 0.8818931
000010 1b d9 54 3f 50 07 8c 3f ba 7d 83 3f 03 b9 55 3f
       0.83143777 1.0939732 1.0272744 0.8348543

bn2.bias f4 [8]
000000 42 0c a6 bd 1e 70 c7 bd b4 7a 90 bd 80 47 13 be
       -0.08107807 -0.097381815 -0.07054654 -0.14382744
000010 4e f5 12 be 92 42 c3 bd ab 08 af bc 14 7d b1 bd
       -0.14351389 -0.09534182 -0.021366438 -0.08666435

bn2.running_mean f4 [8]
000000 44 11 f9 3d 43 27 a8 3d 15 73 14 3d dd 9b df be
       0.12161496 0.082106136 0.036242563 -0.43673602
000010 8d 89 7f 3e af c4 f6 bb 2a 5a cc bd 1a 48 e5 3c
       0.24954815 -0.0075307707 -0.09978135 0.027988482

bn2.running_var f4 [8]
000000 ee b8 c5 3e f5 e1 8a 3f 99 7a 62 3e 93 25 af 3e
       0.38617653 1.0850207 0.2211708 0.34208354
000010 61 b7 84 3f 4b 16 a7 3e 7f 2e ec 3d 13 86 9e 3f
       1.0368463 0.32634196 0.11532306 1.2384666

conv3.weight f4 [16, 8, 4, 4, 4]
000000 40 3e 34 3c 09 cf 08 3d b6 28 31 bd c0 13 f7 3b
       0.01100117 0.03340057 -0.043251716 0.007540196
000010 d0 27 4b 3c 9a 5d 33 bd f9 c1 2c 3d c7 27 02 bd
       0.012399629 -0.043790437 0.042177174 -0.031776216
000020 52 06 56 bc 9a 62 07 bd ab 16 34 3d f0 4d ea 3b
       -0.01306303 -0.03305302 0.04396693 0.007150404
000030 06 45 e9 3c 61 61 85 bc 2b 23 aa bc 4e 6f 30 bd
       0.028475296 -0.016281785 -0.020768723 -0.0430749
000040 7c ca 66 bc 2c 8b c7 bc 08 28 29 bc 52 84 84 3c
       -0.014086362 -0.024358355 -0.010324486 0.016176376
000050 30 56 f5 3b 2f 2f 85 bb 69 a1 be bb 58 f2 14 bd
       0.007487081 -0.0040644626 -0.0058175814 -0.03636393
000060 45 14 30 3d 38 0a 3c ba 79 f3 61 bb c8 9e a4 3d
       0.04298808 -0.00071731536 -0.0034477396 0.080380976
000070 8c e2 41 bc 58 fc fe 3c 9b da 8f bd cb 87 0b 3d
       -0.011833798 0.031126186 -0.070241176 0.03406505
000080 72 0d fe 3c 8a 62 5e bc 68 a6 16 3c ac a6 84 bc
       0.03101227 -0.013573298 0.009194948 -0.016192757
000090 80 48 8b 3c 37 52 a3 3c 0f 0b 29 3d 68 73 06 bc
       0.017002344 0.019936664 0.041270312 -0.008206226
0000a0 64 cd 0a bc db a1 b3 3c 5d fb 98 bc b3 12 b4 bd
       -0.0084718205 0.021927765 -0.018674547 -0.08792629
0000b0 73 46 15 3d 98 72 84 bd 30 24 cf 3c cc af 26 3d
       0.03644414 -0.064671695 0.02528581 0.040694997
0000c0 b1 5a 88 bc b5 9c 1c 3d 86 aa b5 3c 80 e2 70 3b
       -0.016644808 0.038235385 0.022176038 0.0036756098
0000d0 5a 3e 0d bd 4c 07 2f 3d a6 ba e5 bb 23 00 e9 3c
       -0.03448329 0.04273157 -0.0070107756 0.028442448
0000e0 40 ff 9a ba 1c 2e b8 bc 0b e8 fc bb 2b 3b 76 3d
       -0.0011825338 -0.022482924 -0.0077180914 0.06011502
0000f0 1f b9 07 bd a2 f4 f8 3c 45 8f b8 3b 40 ab cb 3c
       -0.03313553 0.030390088 0.0056323134 0.024861932
000100 7f 35 2d 3d 62 54 e3 3c 8f bb 85 bc 5b f2 e0 bc
       0.042287346 0.027750198 -0.016324786 -0.027459314
000110 90 99 8f 3b 54 43 db bc fb 52 8c bc 00 3e c7 bb
       0.0043823197 -0.026765503 -0.017129412 -0.006080389
000120 9b 07 07 3d 40 de 47 bc ce ee e7 3c 6e 34 b9 3c
       0.032966238 -0.012198985 0.028312113 0.022608008
000130 e8 d5 bf bb 50 31 26 3c 60 ab 8f bb 1f bd 15 3d
       -0.005854357 0.010143593 -0.004384443 0.036557313
000140 7d 43 0f 3d 00 db 52 3a 17 af 14 3d 5d 43 ce bc
       0.03497647 0.0008043498 0.03629979 -0.025178606
000150 60 bd 30 bd 3c fb f1 ba 1c 74 13 bd 5f 18 b4 3c
       -0.043149352 -0.0018461714 -0.035999402 0.021984277
000160 ed 20 80 bc 5c 8c 06 bd b3 93 b1 bc 42 04 98 bd
       -0.0156407 -0.0328487 -0.021676874 -0.07422687
000170 7c ef 3f bc b7 30 85 bd c8 d1 49 3b a1 d0 54 bd
       -0.011714812 -0.06503432 0.0030795205 -0.051956777
000180 fc af 88 bc 5f 3c 15 bd 5e 5b 9b 3c 86 5a ad 3c
       -0.016685478 -0.036434527 0.018964466 0.021161329
000190 26 cb 1f bd 57 57 47 bd bd 12 6c bc 4f d3 2a bc
       -0.039012097 -0.04866728 -0.014408764 -0.010426356
0001a0 66 05 a7 bc 7e 2c 61 3b 6c da 92 bc e1 53 e3 bc
       -0.020388316 0.0034358795 -0.017926417 -0.027749958
0001b0 ee af c3 3c ff 8f 4d bb fa bf 80 bc 58 49 28 bd
       0.0238876 -0.0031366346 -0.015716542 -0.04108557
0001c0 00 80 f1 39 03 25 ee bc b5 6a 32 3d fa c7 0c bd
       0.0004606247 -0.029070383 0.043558795 -0.0343704
0001d0 bc 32 46 bc 69 c8 c3 3b 83 d0 c6 bc 9b 8e d7 3b
       -0.012097057 0.0059748185 -0.024269348 0.006578279
0001e0 24 aa 88 bc 9b 96 59 3c 4f 11 2a 3d 2e 1f a4 bc
       -0.016682692 0.013280536 0.041520413 -0.020034399
0001f0 4e 2a a9 3c 40 7e 59 bd a2 c4 21 bd a1 27 17 3d
       0.020650055 -0.053098917 -0.039494164 0.036903027
000200 4c 0b 09 bc 14 89 08 bd c0 de 25 ba c0 4b 07 ba
       -0.00836451 -0.033333853 -0.0006327443 -0.0005161129
000210 9a e3 a7 3c 99 12 11 3d 98 3a bd 3b 22 0b 03 bd
       0.020494271 0.035418127 0.005774807 -0.03199304
000220 f0 3a 39 bb 1a 31 8f bc c8 da 2d bd 32 9d f2 bc
       -0.002826389 -0.017479468 -0.042444974 -0.029615972
000230 80 52 be bb b2 86 7e bc 21 ff e6 bc 41 52 ad bc
       -0.0058081746 -0.015535044 -0.028197827 -0.021157386
000240 86 4b 12 bd 88 43 35 3c 8c 5b 0a bc 32 99 b4 3c
       -0.035716556 0.011063464 -0.008444678 0.022045705
000250 5e b8 f8 bc f1 2c a2 bc fc e9 37 bd ae 78 a3 bd
       -0.03036135 -0.01979682 -0.04490088 -0.07982002
000260 4a 9e ac 3c bc de 74 bc c0 26 4d 3d 1d 25 9a bc
       0.021071572 -0.014945682 0.050085783 -0.018816525
000270 14 5f 11 bd 87 13 87 bc fb ea 7b 3d a0 e7 16 3d
       -0.035491064 -0.016488804 0.06150339 0.03684199
000280 ca 9c b0 3c 6b bc 2a bd 81 24 db bc 1e 24 f8 bc
       0.021559138 -0.041683596 -0.026750805 -0.03029066
000290 40 e6 ca ba 00 fd fa 3c 98 7b eb 3c e7 c9 9f 3c
       -0.0015479997 0.030638218 0.028745458 0.019505454
0002a0 98 a9 99 bb 7d 38 b4 3c 2c a2 4a bc e9 ad bc 3c
       -0.0046894066 0.021999592 -0.012367766 0.023032146
0002b0 ae 78 5e bc a7 4f 72 3d c9 92 53 be fb df a1 bd
       -0.013578577 0.059157994 -0.20661463 -0.07904049
0002c0 f8 2c 16 3c e4 4d 31 bd 8c db 53 bc a2 4a e0 3c
       0.009165995 -0.043287173 -0.012930762 0.027379338
0002d0 d4 b4 5e bc de 42 67 bd 02 09 2f 3b ff c2 8f ba
       -0.0135929175 -0.056460254 0.002670825 -0.0010968148
0002e0 00 e4 b5 b8 e3 b7 56 3d 85 e1 64 3d 75 46 b5 3d
       -8.673221e-05 0.05242146 0.055879135 0.08851329
0002f0 6c fa fb bc c8 e0 26 3c a4 29 c6 bb 51 5c e9 b8
       -0.030759059 0.010185428 -0.0060474444 -0.00011127501
000300 08 87 1b bc 20 02 db ba fa aa cf 3c df 5f 11 3d
       -0.009492643 -0.0016709007 0.025350083 0.03549182
000310 88 4e 13 bc b0 b5 03 3b da 2a df 3c c0 07 d3 bb
       -0.008990891 0.0020097308 0.027242113 -0.006440133
000320 40 39 b9 bb 80 e2 65 3a c5 20 f0 bc a0 53 fa ba
       -0.0056525767 0.0008769408 -0.0293125 -0.0019098409
000330 00 d2 c7 bb 90 bb a0 3b 54 33 52 bc 74 50 c2 bc
       -0.006098032 0.0049051717 -0.01282962 -0.023720004
000340 30 ae 86 bb d2 24 8e bc 59 7a d7 bc 82 9e b5 3c
       -0.0041101202 -0.017351542 -0.026303457 0.022170309
000350 83 a9 09 bd d5 14 97 3b f7 15 05 bd 69 21 52 3d
       -0.033608925 0.0046106377 -0.03249165 0.051301394
000360 56 49 a4 3c dc 5c 99 bc 14 58 a3 bc f8 23 37 3b
       0.0200545 -0.018721037 -0.01993946 0.0027945023
000370 80 f4 f7 3b 67 61 39 bd 6d 37 0f 3d 86 bd af 3b
       0.0075669885 -0.045258906 0.034964968 0.005363169
000380 b8 47 dc bc d2 b2 91 3c 32 b5 a6 bc fb c5 1f 3d
       -0.026889667 0.017785463 -0.020350073 0.03900717
000390 d3 81 0a bd 70 a5 f7 bb 1a 99 37 3c 93 f3 02 bd
       -0.033815216 -0.0075575635 0.011205936 -0.03197057
0003a0 21 0d 99 bc ea 72 4d 3c 70 6d 9b 3d 49 6f 1e bd
       -0.018683018 0.012539605 0.07589233 -0.03868035
0003b0 10 fb 6b 3b 1e a4 9f 3c 20 21 b1 3c ba e5 1c bd
       0.00360078 0.019487437 0.02162224 -0.03830502
0003c0 7d c1 04 3d 84 39 64 3c e8 fe cd bc 2e b1 09 bd
       0.032411087 0.013929728 -0.025145963 -0.033616237
0003d0 fd c0 99 bc 82 bd 2b 3c 87 56 2e 3d 66 f2 94 3c
       -0.018768782 0.010482194 0.042562988 0.01818199
0003e0 82 68 1c bd 07 15 85 3d ca 1f 70 bc ff c7 8c bc
       -0.038185604 0.06498151 -0.014656017 -0.01718521
0003f0 80 f0 d5 bb 5d 2a da bc 87 dc bd bc 2f cf c3 3d
       -0.006528914 -0.026631529 -0.023176445 0.095610015

conv3.bias f4 [16]
000000 00 19 79 3c 34 61 2e 3d ee b5 9e bc 5b 0d 66 bc
       0.015203714 0.04257317 -0.01937386 -0.01404127
000010 d1 e1 b6 3c e9 bf a9 bb ef d1 e9 3c 8f 66 e3 3c
       0.022324475 -0.005180348 0.028542487 0.027758865
000020 0e fd 57 bd e9 a2 d6 3c 08 3a b5 3c ee 1e 80 bd
       -0.052731566 0.026200728 0.022122398 -0.06255899
000030 d7 96 f1 bc a1 61 af 3c 23 f9 15 3c 4b 00 35 3c
       -0.029490871 0.021408858 0.009153637 0.011047433

bn3.weight f4 [16]
000000 56 6b bb 3f eb ae b0 3f 32 c2 a2 3f 29 22 b3 3f
       1.4642131 1.3803381 1.2715514 1.39948
000010 c0 dc c5 3f 83 85 9c 3f 57 a1 b1 3f df cb af 3f
       1.5457993 1.2228245 1.3877362 1.3734092
000020 40 b7 a8 3f de 6e 97 3f 5f 5b 9c 3f ba 3e c3 3f
       1.3180923 1.1830709 1.2215384 1.5253518
000030 bc a1 be 3f e2 30 bd 3f ae ea 9e 3f 6a c7 aa 3f
       1.4893107 1.4780543 1.2415369 1.3342106

bn3.bias f4 [16]
000000 0b 30 95 3e 12 52 48 3e 3d 9c 53 3e cb 88 88 3e
       0.29138216 0.19562557 0.20665069 0.26666865
000010 db 4f c7 3e 00 43 3c 3e 60 c8 3a 3e 8c 72 31 3e
       0.38928112 0.18384933 0.182405 0.17328852
000020 1d 41 4f 3e 8d 52 47 3e 99 13 5f 3e 66 11 c8 3e
       0.20239682 0.19465084 0.2178482 0.39075774
000030 b8 89 4a 3e 2e bd b3 3e 54 1e 39 3e 8b 70 88 3e
       0.19779098 0.3510527 0.18077976 0.26648363

bn3.running_mean f4 [16]
000000 65 57 31 bc 95 28 6c 3d 00 91 13 bd c2 71 b4 bd
       -0.010824059 0.05765589 -0.036026955 -0.0881076
000010 04 93 de bd 9d d0 a0 bd 8e 0d ad bd 5b b8 d2 3d
       -0.10867885 -0.0785229 -0.08449851 0.10289069
000020 3a d9 bc bd 10 35 36 be f0 07 ea 3b 4d 6e 2c be
       -0.0922112 -0.17793679 0.0071420595 -0.16838951
000030 7d 39 bb bd 25 cf a2 bd b6 1e c8 bd a1 a8 8a bd
       -0.091418244 -0.07949666 -0.09771483 -0.06770445

bn3.running_var f4 [16]
000000 89 bf 58 3d 0c c4 e7 3d 6e 37 d6 3c cf c3 84 3c
       0.052917037 0.1131669 0.026149478 0.01620665
000010 b6 99 56 3d eb b5 84 3d d8 e0 cf 3d 62 cd 0b 3e
       0.052392684 0.064800106 0.101503074 0.13652566
000020 e2 45 06 3d b6 ad 4f 3d c5 ad 26 3d ef d1 48 3d
       0.03278149 0.050702773 0.040693063 0.049028333
000030 30 6a 17 3e d0 2a 14 3d 54 7e e1 3c 3f e1 33 3d
       0.14786601 0.03617364 0.027526058 0.043915983

linear.weight f4 [2, 16]
000000 80 86 d6 bd c5 f0 b1 be 5a a1 ac be af c1 cd be
       -0.104748726 -0.34754005 -0.3371685 -0.4018683
000010 02 0c 7f 3e bc a1 e1 be bc 06 57 be 18 86 86 be
       0.24906924 -0.44068706 -0.20998663 -0.2627418
000020 9b a5 c1 be 46 c7 b2 be e6 ec a4 be bc bb 0a 3f
       -0.3782166 -0.3491766 -0.3221199 0.5419271
000030 78 ed d4 bd 09 cc 24 3f 3a 80 81 be 17 c0 bc be
       -0.10396856 0.6437383 -0.25293142 -0.36865303
000040 52 a9 c0 3e 87 62 ee 3e 1e d6 e0 3e 9a 68 2d 3e
       0.3762918 0.46559545 0.43913358 0.16934434
000050 70 ac 1f bf 78 18 d0 3e 15 69 87 3e 71 ea a4 3e
       -0.62372494 0.40643668 0.2644736 0.32210115
000060 c2 bd aa 3e c2 1f c9 3e ae aa 33 3e e7 3e c4 be
       0.333479 0.39282042 0.17545578 -0.3832924
000070 62 36 ad 3e ea 31 f2 be 39 6a b8 3e dc 2d 72 3e
       0.33830553 -0.47303706 0.3601854 0.23650306

linear.bias f4 [2]
000000 80 38 8e 3b 28 83 87 be
       0.0043402314 -0.26467252
